…
Resolving deltas: 100% (124/124), done.
12.2s	7	Command: ./TickNets/TickNet_Dogs.py --download --base-dir=./ --data-root=./datasets/StanfordDogs --network-type=spatialTickNet --config=a -g 0 -b 64 -e 100
12.3s	8	Using device cuda:0
12.3s	9	THE ACTUAL CHANNEL: basic
12.3s	10	THE ACTUAL CHANNEL CONFIG: a
12.3s	11	add_stages: stage(1), node(1)
12.3s	12	add_stages: stage(1), node(2)
12.3s	13	add_stages: stage(2), node(1)
12.3s	14	add_stages: stage(3), node(1)
12.3s	15	add_stages: stage(4), node(1)
12.3s	16	add_stages: stage(5), node(1)
12.5s	17	SpatialTickNet(
12.5s	18	  (backbone): Sequential(
12.5s	19	    (data_bn): BatchNorm2d(3, eps=1e-05, momentum=0.1, affine=True, track_running_stats=True)
12.5s	20	    (init_conv): ConvBlock(
12.5s	21	      (conv): Conv2d(3, 32, kernel_size=(3, 3), stride=(2, 2), padding=(1, 1), bias=False)
12.5s	22	      (bn): BatchNorm2d(32, eps=1e-05, momentum=0.1, affine=True, track_running_stats=True)
12.5s	23	      (activation): ReLU(inplace=True)
12.5s	24	    )
12.5s	25	    (stage1): Sequential(
12.5s	26	      (unit1): FR_PDP_block(
12.5s	27	        (Pw1): ConvBlock(
12.5s	28	          (conv): Conv2d(32, 32, kernel_size=(1, 1), stride=(1, 1), bias=False)
12.5s	29	        )
12.5s	30	        (Dw): ConvBlock(
12.5s	31	          (conv): Conv2d(32, 32, kernel_size=(3, 3), stride=(1, 1), padding=(1, 1), groups=32, bias=False)
12.5s	32	          (bn): BatchNorm2d(32, eps=1e-05, momentum=0.1, affine=True, track_running_stats=True)
12.5s	33	          (activation): ReLU(inplace=True)
12.5s	34	        )
12.5s	35	        (Pw2): ConvBlock(
12.5s	36	          (conv): Conv2d(32, 256, kernel_size=(1, 1), stride=(1, 1), bias=False)
12.5s	37	          (bn): BatchNorm2d(256, eps=1e-05, momentum=0.1, affine=True, track_running_stats=True)
12.5s	38	          (activation): ReLU(inplace=True)
12.5s	39	        )
12.5s	40	        (PwR): ConvBlock(
12.5s	41	          (conv): Conv2d(32, 256, kernel_size=(1, 1), stride=(1, 1), bias=False)
12.5s	42	          (bn): BatchNorm2d(256, eps=1e-05, momentum=0.1, affine=True, track_running_stats=True)
12.5s	43	          (activation): ReLU(inplace=True)
12.5s	44	        )
12.5s	45	        (SE): SE(
12.5s	46	          (ChannelGate): ChannelGate(
12.5s	47	            (mlp): Sequential(
12.5s	48	              (0): Flatten()
12.5s	49	              (1): Linear(in_features=256, out_features=16, bias=True)
12.5s	50	              (2): ReLU()
12.5s	51	              (3): Linear(in_features=16, out_features=256, bias=True)
12.5s	52	            )
12.5s	53	          )
12.5s	54	        )
12.5s	55	      )
12.5s	56	      (unit2): FR_PDP_block(
12.5s	57	        (Pw1): ConvBlock(
12.5s	58	          (conv): Conv2d(256, 256, kernel_size=(1, 1), stride=(1, 1), bias=False)
12.5s	59	        )
12.5s	60	        (Dw): ConvBlock(
12.5s	61	          (conv): Conv2d(256, 256, kernel_size=(3, 3), stride=(1, 1), padding=(1, 1), groups=256, bias=False)
12.5s	62	          (bn): BatchNorm2d(256, eps=1e-05, momentum=0.1, affine=True, track_running_stats=True)
12.5s	63	          (activation): ReLU(inplace=True)
12.5s	64	        )
12.5s	65	        (Pw2): ConvBlock(
12.5s	66	          (conv): Conv2d(256, 128, kernel_size=(1, 1), stride=(1, 1), bias=False)
12.5s	67	          (bn): BatchNorm2d(128, eps=1e-05, momentum=0.1, affine=True, track_running_stats=True)
12.5s	68	          (activation): ReLU(inplace=True)
12.5s	69	        )
12.5s	70	        (PwR): ConvBlock(
12.5s	71	          (conv): Conv2d(256, 128, kernel_size=(1, 1), stride=(1, 1), bias=False)
12.5s	72	          (bn): BatchNorm2d(128, eps=1e-05, momentum=0.1, affine=True, track_running_stats=True)
12.5s	73	          (activation): ReLU(inplace=True)
12.5s	74	        )
12.5s	75	        (SE): SE(
12.5s	76	          (ChannelGate): ChannelGate(
12.5s	77	            (mlp): Sequential(
12.5s	78	              (0): Flatten()
12.5s	79	              (1): Linear(in_features=128, out_features=8, bias=True)
12.5s	80	              (2): ReLU()
12.5s	81	              (3): Linear(in_features=8, out_features=128, bias=True)
12.5s	82	            )
12.5s	83	          )
12.5s	84	        )
12.5s	85	      )
12.5s	86	    )
12.5s	87	    (stage2): Sequential(
12.5s	88	      (unit1): FR_PDP_block(
12.5s	89	        (Pw1): ConvBlock(
12.5s	90	          (conv): Conv2d(128, 128, kernel_size=(1, 1), stride=(1, 1), bias=False)
12.5s	91	        )
12.5s	92	        (Dw): ConvBlock(
12.5s	93	          (conv): Conv2d(128, 128, kernel_size=(3, 3), stride=(2, 2), padding=(1, 1), groups=128, bias=False)
12.5s	94	          (bn): BatchNorm2d(128, eps=1e-05, momentum=0.1, affine=True, track_running_stats=True)
12.5s	95	          (activation): ReLU(inplace=True)
12.5s	96	        )
12.5s	97	        (Pw2): ConvBlock(
12.5s	98	          (conv): Conv2d(128, 64, kernel_size=(1, 1), stride=(1, 1), bias=False)
12.5s	99	          (bn): BatchNorm2d(64, eps=1e-05, momentum=0.1, affine=True, track_running_stats=True)
12.5s	100	          (activation): ReLU(inplace=True)
12.5s	101	        )
12.5s	102	        (PwR): ConvBlock(
12.5s	103	          (conv): Conv2d(128, 64, kernel_size=(1, 1), stride=(2, 2), bias=False)
12.5s	104	          (bn): BatchNorm2d(64, eps=1e-05, momentum=0.1, affine=True, track_running_stats=True)
12.5s	105	          (activation): ReLU(inplace=True)
12.5s	106	        )
12.5s	107	        (SE): SE(
12.5s	108	          (ChannelGate): ChannelGate(
12.5s	109	            (mlp): Sequential(
12.5s	110	              (0): Flatten()
12.5s	111	              (1): Linear(in_features=64, out_features=4, bias=True)
12.5s	112	              (2): ReLU()
12.5s	113	              (3): Linear(in_features=4, out_features=64, bias=True)
12.5s	114	            )
12.5s	115	          )
12.5s	116	        )
12.5s	117	      )
12.5s	118	    )
12.5s	119	    (stage3): Sequential(
12.5s	120	      (unit1): FR_PDP_block(
12.5s	121	        (Pw1): ConvBlock(
12.5s	122	          (conv): Conv2d(64, 64, kernel_size=(1, 1), stride=(1, 1), bias=False)
12.5s	123	        )
12.5s	124	        (Dw): ConvBlock(
12.5s	125	          (conv): Conv2d(64, 64, kernel_size=(3, 3), stride=(2, 2), padding=(1, 1), groups=64, bias=False)
12.5s	126	          (bn): BatchNorm2d(64, eps=1e-05, momentum=0.1, affine=True, track_running_stats=True)
12.5s	127	          (activation): ReLU(inplace=True)
12.5s	128	        )
12.5s	129	        (Pw2): ConvBlock(
12.5s	130	          (conv): Conv2d(64, 128, kernel_size=(1, 1), stride=(1, 1), bias=False)
12.5s	131	          (bn): BatchNorm2d(128, eps=1e-05, momentum=0.1, affine=True, track_running_stats=True)
12.5s	132	          (activation): ReLU(inplace=True)
12.5s	133	        )
12.5s	134	        (PwR): ConvBlock(
12.5s	135	          (conv): Conv2d(64, 128, kernel_size=(1, 1), stride=(2, 2), bias=False)
12.5s	136	          (bn): BatchNorm2d(128, eps=1e-05, momentum=0.1, affine=True, track_running_stats=True)
12.5s	137	          (activation): ReLU(inplace=True)
12.5s	138	        )
12.5s	139	        (SE): SE(
12.5s	140	          (ChannelGate): ChannelGate(
12.5s	141	            (mlp): Sequential(
12.5s	142	              (0): Flatten()
12.5s	143	              (1): Linear(in_features=128, out_features=8, bias=True)
12.5s	144	              (2): ReLU()
12.5s	145	              (3): Linear(in_features=8, out_features=128, bias=True)
12.5s	146	            )
12.5s	147	          )
12.5s	148	        )
12.5s	149	      )
12.5s	150	    )
12.5s	151	    (stage4): Sequential(
12.5s	152	      (unit1): FR_PDP_block(
12.5s	153	        (Pw1): ConvBlock(
12.5s	154	          (conv): Conv2d(128, 128, kernel_size=(1, 1), stride=(1, 1), bias=False)
12.5s	155	        )
12.5s	156	        (Dw): ConvBlock(
12.5s	157	          (conv): Conv2d(128, 128, kernel_size=(3, 3), stride=(2, 2), padding=(1, 1), groups=128, bias=False)
12.5s	158	          (bn): BatchNorm2d(128, eps=1e-05, momentum=0.1, affine=True, track_running_stats=True)
12.5s	159	          (activation): ReLU(inplace=True)
12.5s	160	        )
12.5s	161	        (Pw2): ConvBlock(
12.5s	162	          (conv): Conv2d(128, 256, kernel_size=(1, 1), stride=(1, 1), bias=False)
12.5s	163	          (bn): BatchNorm2d(256, eps=1e-05, momentum=0.1, affine=True, track_running_stats=True)
12.5s	164	          (activation): ReLU(inplace=True)
12.5s	165	        )
12.5s	166	        (PwR): ConvBlock(
12.5s	167	          (conv): Conv2d(128, 256, kernel_size=(1, 1), stride=(2, 2), bias=False)
12.5s	168	          (bn): BatchNorm2d(256, eps=1e-05, momentum=0.1, affine=True, track_running_stats=True)
12.5s	169	          (activation): ReLU(inplace=True)
12.5s	170	        )
12.5s	171	        (SE): SE(
12.5s	172	          (ChannelGate): ChannelGate(
12.5s	173	            (mlp): Sequential(
12.5s	174	              (0): Flatten()
12.5s	175	              (1): Linear(in_features=256, out_features=16, bias=True)
12.5s	176	              (2): ReLU()
12.5s	177	              (3): Linear(in_features=16, out_features=256, bias=True)
12.5s	178	            )
12.5s	179	          )
12.5s	180	        )
12.5s	181	      )
12.5s	182	    )
12.5s	183	    (stage5): Sequential(
12.5s	184	      (unit1): FR_PDP_block(
12.5s	185	        (Pw1): ConvBlock(
12.5s	186	          (conv): Conv2d(256, 256, kernel_size=(1, 1), stride=(1, 1), bias=False)
12.5s	187	        )
12.5s	188	        (Dw): ConvBlock(
12.5s	189	          (conv): Conv2d(256, 256, kernel_size=(3, 3), stride=(2, 2), padding=(1, 1), groups=256, bias=False)
12.5s	190	          (bn): BatchNorm2d(256, eps=1e-05, momentum=0.1, affine=True, track_running_stats=True)
12.5s	191	          (activation): ReLU(inplace=True)
12.5s	192	        )
12.5s	193	        (Pw2): ConvBlock(
12.5s	194	          (conv): Conv2d(256, 512, kernel_size=(1, 1), stride=(1, 1), bias=False)
12.5s	195	          (bn): BatchNorm2d(512, eps=1e-05, momentum=0.1, affine=True, track_running_stats=True)
12.5s	196	          (activation): ReLU(inplace=True)
12.5s	197	        )
12.5s	198	        (PwR): ConvBlock(
12.5s	199	          (conv): Conv2d(256, 512, kernel_size=(1, 1), stride=(2, 2), bias=False)
12.5s	200	          (bn): BatchNorm2d(512, eps=1e-05, momentum=0.1, affine=True, track_running_stats=True)
12.5s	201	          (activation): ReLU(inplace=True)
12.5s	202	        )
12.5s	203	        (SE): SE(
12.5s	204	          (ChannelGate): ChannelGate(
12.5s	205	            (mlp): Sequential(
12.5s	206	              (0): Flatten()
12.5s	207	              (1): Linear(in_features=512, out_features=32, bias=True)
12.5s	208	              (2): ReLU()
12.5s	209	              (3): Linear(in_features=32, out_features=512, bias=True)
12.5s	210	            )
12.5s	211	          )
12.5s	212	        )
12.5s	213	      )
12.5s	214	    )
12.5s	215	    (final_conv): ConvBlock(
12.5s	216	      (conv): Conv2d(512, 1024, kernel_size=(1, 1), stride=(1, 1), bias=False)
12.5s	217	      (bn): BatchNorm2d(1024, eps=1e-05, momentum=0.1, affine=True, track_running_stats=True)
12.5s	218	      (activation): ReLU(inplace=True)
12.5s	219	    )
12.5s	220	    (global_pool): AdaptiveAvgPool2d(output_size=1)
12.5s	221	  )
12.5s	222	  (classifier): Classifier(
12.5s	223	    (conv): Conv2d(1024, 120, kernel_size=(1, 1), stride=(1, 1))
12.5s	224	  )
12.5s	225	)
12.5s	226	Number of model parameters: 1331666
12.6s	227	Downloading http://vision.stanford.edu/aditya86/ImageNetDogs/images.tar to ./datasets/StanfordDogs/images.tar
95.9s	228	
  0%|                                             | 0/793579520 [00:00<?, ?it/s]
  0%|                           | 131072/793579520 [00:00<10:31, 1256923.73it/s]
…
